CoMVC(
  (backbones): Backbones(
    (backbones): ModuleList(
      (0): CNN(
        (layers): ModuleList(
          (0): Conv2d(1, 32, kernel_size=[5, 5], stride=(1, 1))
          (1): ReLU()
          (2): Conv2d(32, 32, kernel_size=[5, 5], stride=(1, 1))
          (3): BatchNorm2d(32, eps=1e-05, momentum=0.1, affine=True, track_running_stats=True)
          (4): ReLU()
          (5): MaxPool2d(kernel_size=[2, 2], stride=[2, 2], padding=0, dilation=1, ceil_mode=False)
          (6): Conv2d(32, 32, kernel_size=[3, 3], stride=(1, 1))
          (7): ReLU()
          (8): Conv2d(32, 32, kernel_size=[3, 3], stride=(1, 1))
          (9): BatchNorm2d(32, eps=1e-05, momentum=0.1, affine=True, track_running_stats=True)
          (10): ReLU()
          (11): MaxPool2d(kernel_size=[2, 2], stride=[2, 2], padding=0, dilation=1, ceil_mode=False)
          (12): Flatten()
        )
      )
      (1): CNN(
        (layers): ModuleList(
          (0): Conv2d(1, 32, kernel_size=[5, 5], stride=(1, 1))
          (1): ReLU()
          (2): Conv2d(32, 32, kernel_size=[5, 5], stride=(1, 1))
          (3): BatchNorm2d(32, eps=1e-05, momentum=0.1, affine=True, track_running_stats=True)
          (4): ReLU()
          (5): MaxPool2d(kernel_size=[2, 2], stride=[2, 2], padding=0, dilation=1, ceil_mode=False)
          (6): Conv2d(32, 32, kernel_size=[3, 3], stride=(1, 1))
          (7): ReLU()
          (8): Conv2d(32, 32, kernel_size=[3, 3], stride=(1, 1))
          (9): BatchNorm2d(32, eps=1e-05, momentum=0.1, affine=True, track_running_stats=True)
          (10): ReLU()
          (11): MaxPool2d(kernel_size=[2, 2], stride=[2, 2], padding=0, dilation=1, ceil_mode=False)
          (12): Flatten()
        )
      )
    )
  )
  (fusion): WeightedMean()
  (projector): Identity()
  (ddc): DDC(
    (hidden): Sequential(
      (0): Linear(in_features=288, out_features=100, bias=True)
      (1): ReLU()
      (2): BatchNorm1d(100, eps=1e-05, momentum=0.1, affine=True, track_running_stats=True)
    )
    (output): Sequential(
      (0): Linear(in_features=100, out_features=10, bias=True)
      (1): Softmax(dim=1)
    )
  )
  (loss): Loss()
)
-------- epoch: 1 --------
Key                        Value
----------------------  --------
params/fusion/weight_0  0.522918
params/fusion/weight_1  0.477082
epoch                   1 

8.00s
-------- epoch: 2 --------
Key                        Value
----------------------  --------
params/fusion/weight_0  0.535798
…
